model/mnist-12-sim.onnx (onnx, 25682 bytes, 6 tensors)

Parameter87 f4 [16, 8, 5, 5]
000000 0a e3 46 bd 5c 65 ba bd af 37 d7 bb 31 7c 03 be
       -0.048556365 -0.09101364 -0.0065679173 -0.12840344
000010 15 07 df 3d cf 86 ac 3d 48 6e 2c be 83 eb 8a be
       0.10890023 0.0842415 -0.16838944 -0.27132806
000020 4d db 9b bc 88 d9 8d 3d 9c d1 22 3d 1a ee 40 bc
       -0.01902547 0.069262564 0.03975068 -0.011775518
000030 31 69 81 bd 07 7b 1a be fb 48 e6 bd 3f 19 8f 3d
       -0.06318892 -0.15085994 -0.11244389 0.06987237
000040 89 87 49 3a 89 b7 aa 3d 45 64 39 be 2a b3 f2 bd
       0.0007687738 0.08335788 -0.18104656 -0.11850579
000050 45 8e 5d 3b 81 aa 80 3e 19 43 46 3e f7 53 5f bd
       0.0033806723 0.25130084 0.19361533 -0.054523434
000060 35 37 03 be dd 1c d9 be 46 8f 8a be 8c d6 84 be
       -0.12814029 -0.42404833 -0.27062434 -0.25944936
000070 21 f7 a5 3d ed 29 b4 3d 8f 00 1f 3c 3c ef 6a be
       0.08103777 0.08797059 0.009704723 -0.22942823
000080 23 1b 83 bd 78 bb b2 3c a5 47 4b bd a6 88 2d 3e
       -0.0640166 0.021817908 -0.049628872 0.16946658
000090 04 44 71 3e fb 35 9f bc 19 46 0a be 44 58 2f bd
       0.23561102 -0.01943492 -0.13503303 -0.042808786
0000a0 3e 42 87 bd 02 9b 3e 3e 55 d7 39 3e f9 5c 14 be
       -0.066044316 0.18613818 0.18148549 -0.14488591
0000b0 f6 9c f6 3c 3a 34 0f be 6f a9 e8 3d 6d 23 d7 3d
       0.030104142 -0.13984767 0.11360442 0.10504804
0000c0 b2 18 52 3d 03 b2 6c 3d 67 c9 1e be df 31 09 be
       0.051293083 0.057786953 -0.15506516 -0.1339793
0000d0 ec 82 a1 3d 50 95 ee 3d 72 8d 0a be 9b 04 ff bd
       0.078862995 0.11649573 -0.1353052 -0.1245205
0000e0 f2 1c 54 be 8d d0 11 be fc b9 7b bd 90 b3 ad bd
       -0.20714167 -0.14239712 -0.061456665 -0.084815145
0000f0 75 fb 41 be 6a ec 61 be cb c3 5d be 18 87 b1 bd
       -0.1894358 -0.22062841 -0.2165672 -0.08668345
000100 a4 ed 84 3d ad c2 84 be 8b db d4 bd 09 7b aa be
       0.06490639 -0.25929776 -0.10393437 -0.33296993
000110 9f e1 09 be 2b 9f 01 bd 78 b2 e7 3c ed 6b b7 3d
       -0.13464974 -0.031645935 0.028283343 0.08956132
000120 08 a7 de bd 00 f0 3f be 01 2e 65 be d8 51 d3 3d
       -0.108717024 -0.18743896 -0.2238083 0.10318345
000130 67 fe 42 bd 19 14 d9 bc 3c 14 b0 bc 4e 1d eb 3c
       -0.0476059 -0.026498841 -0.021494024 0.028700497
000140 61 07 44 3d 7f 51 cb ba 3e b5 d4 3d 46 4c b4 bd
       0.0478586 -0.0015511959 0.10386132 -0.088036105
000150 be fc 60 bd 8c 1b 9d 3d 32 67 d8 3c 03 fb 83 be
       -0.054928534 0.0767127 0.026416395 -0.25777444
000160 e6 ab 91 be 22 a1 55 be af 90 92 3c 1e dd 8a 3d
       -0.2845146 -0.20862249 0.017891256 0.06780456
000170 3c b8 0c bd fa f4 9b be ed ac 01 be 68 ce 2a bc
       -0.034355387 -0.3046034 -0.12663622 -0.010425188
000180 84 7a f0 3d 10 f7 2d 3e 28 57 89 bd 19 7e 61 3d
       0.11742118 0.16988778 -0.06706077 0.055051897
000190 fe 08 33 3e 04 2c 86 bd 6d 51 0e be cd 02 9e be
       0.17483899 -0.06551364 -0.13898249 -0.30861512
0001a0 f7 05 d6 bd 0a 79 bd 3d 22 94 99 3e d6 66 7a 3d
       -0.104503565 0.09251602 0.2999583 0.06113323
0001b0 8f 43 65 be d9 f7 5e be 3c 97 b1 bd 83 78 0d 3d
       -0.22389053 -0.21774234 -0.08671424 0.034538757
0001c0 a0 82 f9 3d d9 dc 12 be b3 ba 10 be 60 b5 d8 be
       0.12183118 -0.14342059 -0.1413372 -0.42325878
0001d0 63 03 11 bd bd ca 59 3d 68 27 c6 3c 96 a7 83 bc
       -0.03540362 0.053171862 0.024188712 -0.016071122
0001e0 1e 99 f6 bd 55 81 26 be 9f 22 c6 bd 5f 06 12 3d
       -0.120409235 -0.16260274 -0.09674572 0.035650607
0001f0 bd 92 5d 3c cc 4e 13 3e 5f 7c a1 3c 6f a2 ac be
       0.013523755 0.14385527 0.019712625 -0.33717677
000200 ff 82 64 be 31 eb 25 be 98 7f 2b 3e df 70 e7 3e
       -0.22315596 -0.16203 0.16747892 0.452033
000210 f8 1f 89 3e be ad ff bd 19 7e 5f be cd bd 18 be
       0.26782203 -0.124843106 -0.21825446 -0.14916153
000220 e2 bb 9b bd 50 d7 83 3e c3 b0 d2 3d 7f 4f 85 3d
       -0.07604195 0.25750208 0.10287621 0.06509303
000230 92 82 d7 be 69 74 9f be cf 84 13 bd 07 ab 3f 3d
       -0.42091805 -0.311435 -0.036015328 0.046793964
000240 49 85 ea 3d 39 0f 5a bd 56 6d 0b be fd 5d 88 be
       0.114512034 -0.053237174 -0.13615927 -0.26634207
000250 5a 2e 5a be ef bf fd bc db 9a 5e 3d cf 9e 2e be
       -0.21306744 -0.03097531 0.0543469 -0.17052768
000260 2f 5b 94 be 9f a7 29 bd 35 8f 7c be 0d 5f cb 3d
       -0.28975818 -0.04141962 -0.24664004 0.09930239
000270 52 ee 47 3e 18 0d c9 bd 92 7d 8a be 17 5d 19 be
       0.19524506 -0.098169506 -0.27048928 -0.14976917
000280 ba 41 af bd 2f 95 01 3b 88 88 5d 3d 7a 7a 3f 3d
       -0.08557458 0.0019772758 0.054085284 0.046747662
000290 c1 f1 24 be da b4 be 3c 59 91 85 3d 8b d4 7b 3e
       -0.16107847 0.023279596 0.065218635 0.24592797
0002a0 41 60 78 3d 70 3a 52 3c 4b f9 c1 bd 29 b4 d8 bd
       0.06063867 0.012831315 -0.09471377 -0.10581238
0002b0 c9 d8 6a 3e ef 34 51 3e d3 1b b8 bd 29 7b 7d be
       0.2293426 0.20430349 -0.08989682 -0.24754013
0002c0 95 bb 13 3e 4f d2 54 3d 19 40 c4 bc 5f cd cc 3d
       0.14427026 0.05195838 -0.023956345 0.10000109
0002d0 88 f8 69 bd be 58 9b bd 52 4c 6b bd 3c 90 51 3d
       -0.057121783 -0.075852856 -0.05744583 0.051162943
0002e0 f4 52 b1 3d e4 14 7f 3d 1c 35 1e be 9b e3 0f be
       0.086584 0.062275782 -0.15449947 -0.14051668
0002f0 74 9e a5 3c 1a 69 e2 3c 24 23 d0 bd 80 5e eb 3c
       0.020217158 0.027638007 -0.101629525 0.028731585
000300 d4 14 03 be 94 72 68 be 6f 9d 89 be 4e 70 08 3e
       -0.12800914 -0.22699958 -0.26877925 0.13324091
000310 ff e2 9f 3d fb d4 fc bd 19 e3 14 be 12 0e 31 be
       0.07806968 -0.1234531 -0.14539756 -0.17290524
000320 cc 69 99 3d 42 e0 5b 3e c4 da 98 bc 1a 58 3e bc
       0.07490882 0.21472266 -0.018659003 -0.011617685
000330 53 8d 21 be d4 f2 20 bd 10 f6 6a bc a8 21 0f bd
       -0.15776567 -0.03929408 -0.014340892 -0.034944206
000340 08 d0 0c 3e 02 e5 80 3e 43 27 33 3d 86 0b c9 be
       0.13751233 0.2517472 0.043738615 -0.39266604
000350 e0 8d 9f bd 65 93 19 3e 47 21 53 3e 6c 50 10 be
       -0.077907324 0.14997633 0.20618163 -0.14093179
000360 8c c7 45 be 83 9a 31 bd 73 c8 b8 3d 47 48 5e 3e
       -0.19314402 -0.043360244 0.09022608 0.21707259
000370 0f 09 ac bd df 14 4f be 9e b9 06 be 83 8a cc bd
       -0.08400165 -0.20222805 -0.13156745 -0.099873565
000380 2e 47 e1 ba f1 27 bc be 86 c7 9e be 63 2f d3 be
       -0.0017187351 -0.36749223 -0.310116 -0.4124709
000390 f5 af 04 bd ba bf 13 be dd 6f aa bd 9f ee 84 bd
       -0.03239437 -0.14428607 -0.083221175 -0.06490826
0003a0 b8 22 88 be 5f e8 71 bd 55 8b d1 bd 38 ed 14 3d
       -0.26588988 -0.059059497 -0.102316536 0.036359042
0003b0 b7 6a 0c 3e c2 87 19 bd 42 22 bf bd be 15 e2 3b
       0.13712583 -0.037482984 -0.09332706 0.0068995645
0003c0 97 da a5 3c 88 6e 6b 3e d4 bf 13 bc d3 48 2f be
       0.020245833 0.22991383 -0.009017903 -0.17117624
0003d0 28 bc 38 be 12 cc bd 3c 3c bc 1d be 44 18 56 bc
       -0.18040526 0.023168597 -0.15403837 -0.013067309
0003e0 ce fd 07 bd cf 84 ae bd ac 3f 63 be 78 17 81 be
       -0.03320103 -0.08521425 -0.22192258 -0.25213218
0003f0 c1 28 3d be e3 4b 66 bd e7 99 c3 3d ce 58 d4 bd
       -0.18472578 -0.056224715 0.09550839 -0.10368501

Parameter5 f4 [8, 1, 5, 5]
000000 16 e9 11 bc dd 97 72 be 23 42 02 bf f7 38 84 bd
       -0.00890567 -0.23690744 -0.50882167 -0.06456178
000010 20 37 11 3e c0 8b 17 bf 9b 58 f3 be 48 21 4a bd
       0.14181185 -0.59197617 -0.47528538 -0.049348146
000020 c7 a9 44 3f e9 e4 86 3e 6b c8 fb be 56 cf 63 3d
       0.7682156 0.2634652 -0.49176344 0.055617653
000030 6e 6d 82 3f 18 01 0e 3f d6 21 e2 be aa 5d 23 be
       1.0189645 0.5547042 -0.4416644 -0.15953699
000040 0a bb 0e 3f 4b 93 17 3f 58 e8 96 be 5a f9 1c bf
       0.5575415 0.59209126 -0.2947414 -0.6131798
000050 f8 b0 1d 3d 9b 71 67 3e 39 cd 5f be d0 52 f4 be
       0.03849885 0.22601931 -0.2185563 -0.4771943
000060 5a 5a 95 be ac 5b 23 bd a1 d8 5f 3e 27 59 ff 3e
       -0.29170495 -0.039882347 0.21859981 0.49872705
000070 82 eb d8 3e 0c da 46 3d 5e 38 cf bd 14 c7 8d be
       0.42367178 0.04854779 -0.10118173 -0.27690947
000080 b5 25 90 bb c2 f4 06 3f b3 8b ce 3e 40 75 1a be
       -0.0043990263 0.5271722 0.40340957 -0.1508379
000090 e7 44 a7 be 28 cd 22 be 4e ce b7 3e 17 ca be 3e
       -0.32669756 -0.15898573 0.35899585 0.37263557
0000a0 42 53 11 bf a0 7c c5 be 44 dd 31 be 9f 82 69 3e
       -0.56767666 -0.38571644 -0.17369562 0.22803734
0000b0 14 5e aa 3e d5 f5 c2 be b3 fc 6a be af a8 87 bd
       0.332749 -0.3807818 -0.2294796 -0.06623971
0000c0 42 90 6e bc ff df 91 3e 8c 07 c2 bc e6 06 d6 3d
       -0.014560761 0.28491208 -0.02368524 0.104505345
0000d0 6d db 81 3e 1f 3a b9 3e eb e2 30 3f 2e 7a ab 3e
       0.2536272 0.36177155 0.6909625 0.33491653
0000e0 fc 80 d5 3e 3c 08 c5 3e 70 a8 a8 3e e9 d8 78 3e
       0.4169997 0.38482845 0.32941008 0.24301495
0000f0 09 2a f0 be 55 90 9b bd 5b fe 13 be 65 ba 31 be
       -0.4690707 -0.075958885 -0.14452498 -0.1735626
000100 70 b1 7c be a3 01 79 bf b3 32 37 bf 4f c8 09 bf
       -0.24677062 -0.9726812 -0.71561736 -0.5382127
000110 49 e5 1d bf 70 9b e5 be 26 c2 4b be 9f ad aa be
       -0.61677986 -0.44845152 -0.1989828 -0.33335587
000120 29 ba b2 be 67 8a 15 be 8a 3f 82 bd 25 38 97 be
       -0.34907654 -0.14603578 -0.06359775 -0.29535022
000130 64 32 aa be e8 ee a7 be bd 37 a2 bd f9 c4 63 be
       -0.3324157 -0.32799459 -0.079207875 -0.22243108
000140 43 1a f4 be fd c5 57 be 94 a3 6b bd 2a ab 27 3e
       -0.47676286 -0.2107162 -0.057529047 0.16373888
000150 9b dc 25 3e 4c 90 c8 be 5d a0 c0 bc 07 73 fc 3d
       0.16197436 -0.3917259 -0.023513967 0.12326627
000160 a4 ab 2d 3d b2 85 69 3e 72 9e c1 3d a6 7b be 3e
       0.042400017 0.22804907 0.09454049 0.3720371
000170 0e a7 60 3e 6d 81 37 bc 3d 86 39 3e a2 b0 a7 3e
       0.21938726 -0.011200291 0.18117614 0.32751948
000180 86 c5 b3 3e 31 1a ee 3c 5f 3e 56 3e 72 72 ae 3e
       0.35111636 0.029065223 0.2092223 0.3407169
000190 0c b0 5b be 3e f4 f9 bd 50 02 1c bb 2b 28 67 be
       -0.21453875 -0.122047886 -0.002380509 -0.22573917
0001a0 47 08 25 be cc 5e b6 3d 35 e5 51 3e bc 19 20 be
       -0.16116439 0.089048 0.20497592 -0.15634817
0001b0 d2 11 67 be ad e5 0f bf 88 b8 76 bd 1a 24 d2 3e
       -0.22565392 -0.5620983 -0.060234576 0.41043168
0001c0 f8 5c 6d bc 58 29 f3 be f0 65 10 bf ea ab ec bd
       -0.0144874975 -0.4749248 -0.56405544 -0.115562275
0001d0 d7 81 11 3e b6 b0 8d 3e 3f 7c 2e 3d b2 39 3d bc
       0.14209686 0.27673882 0.04259896 -0.0115494
0001e0 0d dd 1e 3c 52 05 7c 3e 31 28 20 3f 62 ea 2e 3f
       0.009696257 0.24611405 0.6256133 0.6832639
0001f0 79 bc 71 3e eb 07 2a be bd e9 aa be 78 c8 43 be
       0.23607053 -0.16604583 -0.33381453 -0.19119442
000200 dd 20 5b 3d fc f8 10 3e 90 42 3b 3e 10 4f 0c bf
       0.053498138 0.1415748 0.1828711 -0.5480814
000210 4d b8 3b bf b2 98 16 bf 03 b9 c4 be 09 50 0a 3f
       -0.73328096 -0.58826745 -0.38422403 0.54028374
000220 8e 37 b1 3e 9d 2c 81 be 06 6d b1 be 26 fa 57 be
       0.34612697 -0.2522935 -0.3465349 -0.21091518
000230 29 6f 61 3e af ae 28 3f fe c4 ba 3e 8e 7a 04 3e
       0.2201506 0.65891546 0.36478418 0.12937376
000240 be 60 e0 bd 85 b0 76 3d 8f 0f 9b 3e 78 ac 72 3e
       -0.10955952 0.060226936 0.30285308 0.23698604
000250 b0 34 f0 3e ef a6 64 3e 47 a5 c8 3d 64 3a 0f 3f
       0.46915197 0.22329305 0.09797149 0.5594847
000260 16 94 5b be a9 54 ea be e4 e8 58 be ec 93 ba 3e
       -0.21443209 -0.45767716 -0.2118259 0.3644098
000270 45 60 f9 3e 56 bb d0 be 69 c0 db be 01 7c 7d be
       0.4870626 -0.40767926 -0.42920235 -0.24754335
000280 8c 71 d4 3e 58 9b 99 3e 01 71 ea be d0 9a 9b be
       0.4149288 0.3000133 -0.4578934 -0.3039155
000290 59 60 b7 bd 34 5d 8e 3e dd 5a ea 3d 17 73 30 be
       -0.08953924 0.27805483 0.11443112 -0.17231403
0002a0 25 0f b4 be 71 ad 1b be f8 84 b2 3e 88 41 3e 3e
       -0.35167804 -0.15202881 0.34867072 0.18579686
0002b0 14 2d 91 3d 93 65 09 3e 3c 2a 3d bd 26 ed b4 bc
       0.07088676 0.13417654 -0.046182856 -0.022085737
0002c0 48 2c 07 be f8 c5 bb 3d 56 2a 6d 3e b0 f2 ad 3e
       -0.13200486 0.09168619 0.23160681 0.33974218
0002d0 c1 02 29 3e 71 c2 c0 3e ee b5 47 3e fa 5d a1 3e
       0.16504957 0.37648347 0.19502994 0.3151701
0002e0 22 30 11 3f 57 ac f1 bd 7a af 48 3e 91 bc 07 3e
       0.5671407 -0.11800449 0.19598189 0.13255526
0002f0 fd bf 43 3d d1 d9 08 3e f9 75 e8 3c 8e 7d 0e be
       0.047790516 0.1336434 0.028376566 -0.13915083
000300 fc 59 f7 bd e4 45 4a be de 95 00 bf 71 bb 12 bd
       -0.1207771 -0.19753224 -0.5022868 -0.03582329
000310 4b 62 42 be 1a e6 da be 88 ca 91 be 19 eb 42 be
       -0.18982808 -0.4275368 -0.28474832 -0.19034995

Parameter194 f4 [1, 10]
000000 f4 ba 37 bd 31 51 ff 3b 71 78 8b 3d 6f b5 f5 3c
       -0.044856027 0.007791661 0.06810082 0.02999374
000010 87 71 01 be 81 95 0f 3e 6c 72 62 bd af 46 4a bd
       -0.12640963 0.14021875 -0.055284902 -0.049383815
000020 0a b1 ac 3d c5 65 5f bd
       0.08432205 -0.054540414

Parameter193_reshape1 f4 [256, 10]
000000 05 aa bb 3d 63 b3 f8 3d 52 cc ae 3d 4e 19 fb 3d
       0.09163288 0.1214359 0.08535065 0.12260686
000010 86 3f ca bd 86 a1 e5 bd 9a 5c 12 bd 12 25 c5 bd
       -0.098753974 -0.11212449 -0.035732843 -0.09626211
000020 c6 6f 17 be 3f c8 0e 3d dd 6f 46 bd 95 2d 0c 3e
       -0.14788732 0.03485894 -0.048446525 0.13689263
000030 5d 8f 15 3e 9d 49 f5 bd 94 08 55 3e a2 95 68 be
       0.1460547 -0.11976931 0.20804054 -0.2271333
000040 7c bf d8 3e 82 57 70 3d dd 54 2b be 39 dd bd be
       0.4233359 0.058677204 -0.16731592 -0.37082842
000050 5d da 44 be ea 2a c1 3d 7d e1 bf 3d ea f9 2a bc
       -0.19223924 0.09432013 0.0936918 -0.010435561
000060 64 20 6c 3e 7c a8 e7 be b1 e4 23 3b 56 bd 4b bc
       0.23059231 -0.4524573 0.0025008137 -0.012435278
000070 d8 29 02 3d 4f cc 9b be 33 ab 93 3c f8 e9 c6 3c
       0.031778187 -0.30429313 0.01802597 0.024281487
000080 ef 1f 93 3e 20 18 2f 3e 31 5c 98 bd 7b bb 90 3c
       0.287353 0.17099047 -0.07439459 0.017667523
000090 be c5 d7 bd b8 8c a7 bd fb 43 75 3d b3 3e f8 39
       -0.10535763 -0.08181137 0.059879284 0.0004734896
0000a0 36 31 1d be 74 0c f7 3d ca 7c dc 3d e5 73 c1 3d
       -0.15350804 0.12062922 0.10765989 0.09445933
0000b0 c1 0d 8f bd f4 65 d2 bc 28 80 df 3d ef 58 aa bd
       -0.06985045 -0.02568338 0.10913116 -0.08317744
0000c0 35 1f a9 3d c3 ec 33 be 31 34 2c be 92 53 d7 3d
       0.082579054 -0.17570786 -0.16816784 0.10513987
0000d0 45 7f 32 be 96 83 a8 bd 9d f3 ed 3e 0c e5 f7 3c
       -0.17431362 -0.08228223 0.46474925 0.030260585
0000e0 ba 29 23 be 69 5f 4c 3e 78 ef ce bd 72 34 fd be
       -0.15933886 0.19958271 -0.10104269 -0.49454075
0000f0 e6 bf a8 3e 22 c5 35 3e ce a0 d2 3e 6c 70 fc 3d
       0.32958907 0.17750981 0.4113831 0.1232613
000100 fd 2f 8d be 1a be ee be f1 17 be be df fc ab bc
       -0.27575675 -0.4662941 -0.3712764 -0.020994602
000110 ad 12 03 be 22 e7 46 3d bc 69 c3 3e cd 8b 6d be
       -0.12800093 0.04856027 0.38166606 -0.23197861
000120 1c d6 d0 3e ed 9d b9 3c 22 76 9f 3d 32 91 2b bf
       0.40788352 0.022658313 0.07786204 -0.67018425
000130 d1 93 7a bd fe 8e 3f 3d 13 ea 06 bd 6a a9 11 3e
       -0.061176125 0.046767227 -0.032938074 0.14224783
000140 ee a3 03 be 28 c8 d4 3c 17 c4 12 bc 8d b2 37 3e
       -0.12855503 0.025974348 -0.008957884 0.17939205
000150 b6 0d 09 bd 4b 7b de bc 67 6c 05 3e 36 56 3a bd
       -0.03346034 -0.0271584 0.13029633 -0.045492373
000160 04 df 5b 3d 28 fe b2 3c 6a 7c c3 bb ec 6f 4b bd
       0.05367948 0.021849707 -0.005965759 -0.049667284
000170 4b ba 22 be 3a e9 de 3d d5 25 2e be 32 fb b2 3e
       -0.15891378 0.10884328 -0.1700662 0.34957272
000180 49 7c 32 be 4c 73 29 3e 2f bd 0f be 4c e7 31 be
       -0.17430224 0.16547889 -0.14037012 -0.17373389
000190 b1 eb 15 bd a0 43 24 3d 79 90 44 3e ed 25 2e 3d
       -0.036601726 0.040103555 0.19195737 0.042516638
0001a0 d6 c1 27 be 7b 42 e2 3e 86 a0 9d 3d b3 12 e0 be
       -0.16382536 0.44191346 0.07696633 -0.43764266
0001b0 82 a9 4a 3d ab 6d 71 be ad 3a c9 bd f6 99 cf be
       0.04947806 -0.23576991 -0.09825645 -0.4054715
0001c0 c0 fc be be b9 89 79 3e 4d 87 05 bf a0 1f 11 3f
       -0.37302208 0.24368943 -0.5215958 0.5668888
0001d0 0c 23 0e 3f 2b df d5 bd 30 59 38 3e 91 fb e8 bd
       0.5552223 -0.104429565 0.18002772 -0.113761075
0001e0 0e 68 22 bd 53 ab e5 bd 39 57 1b bb a5 0b 4e bb
       -0.039650016 -0.11214318 -0.0023703112 -0.0031440046
0001f0 17 78 d2 bd 32 fb 9b 3c f5 be 93 bd bd ec 80 bd
       -0.102768116 0.019040678 -0.072141565 -0.06295154
000200 c6 ff b1 3d e4 d1 73 3d 14 b7 38 3e a7 ef dc 3d
       0.08691363 0.05952634 0.18038589 0.107878976
000210 69 b8 48 be 81 57 03 3c a3 a3 81 3d 43 85 72 3c
       -0.19601597 0.008016468 0.06330039 0.01480228
000220 80 3c 93 bd 31 e2 da 3d 8b ed 7a be 00 e4 79 3c
       -0.07189274 0.10687674 -0.24504678 0.015252113
000230 02 9d ab be 98 4c 06 bd aa e3 22 be 0e 90 15 3f
       -0.33518225 -0.03278789 -0.1590716 0.58422935
000240 d0 8b 96 bd 79 07 04 3f a6 02 25 3e a8 38 4d be
       -0.07350886 0.515739 0.16114292 -0.20041144
000250 de 5a b0 3d e3 91 88 be f5 0c f7 be 31 b9 25 3d
       0.086110815 -0.26673803 -0.48252073 0.040459815
000260 39 0a d4 bc 56 59 99 3e 45 de 5e be 40 39 a6 3d
       -0.02588378 0.2995097 -0.21764477 0.08116388
000270 99 7a 88 3e 50 92 94 be 95 7f 88 3e c0 ec 4f be
       0.26656035 -0.29017878 0.26659837 -0.20305157
000280 c7 8f fe bd 91 79 c3 3b 5d bf 65 3e 6a d1 0b 3e
       -0.12429767 0.0059654196 0.2243628 0.13654104
000290 a7 99 e5 bc 96 d4 8f be 54 e7 ba 3c d6 57 85 3d
       -0.028027369 -0.28091878 0.022815384 0.06510894
0002a0 ea 8b 15 be 45 26 d1 3d 26 8b 0c be d3 cb 65 3d
       -0.14604154 0.102123775 -0.13724956 0.056102585
0002b0 e6 20 a6 bd 54 0c e9 3b ff a5 53 be aa d5 e7 3d
       -0.08111744 0.0071120653 -0.20668791 0.1132005
0002c0 60 75 38 be 3a 3a b8 3e 63 54 6b be fb c4 fe 3b
       -0.18013525 0.35981923 -0.2298141 0.0077749467
0002d0 e0 c1 59 be d2 ef d1 bd c0 90 ba 3d a1 ee 8a 3e
       -0.21265364 -0.1025082 0.0910964 0.27135184
0002e0 57 86 14 be 60 a7 b2 3d 96 cb 8f bd 3c 18 0b 3e
       -0.14504372 0.087233305 -0.07021253 0.13583463
0002f0 c1 ca f0 3d dc 49 c7 bb c4 00 1e bd d2 14 b0 3d
       0.11757422 -0.006081803 -0.03857495 0.08597721
000300 cc 32 42 3d f3 13 16 bd fc 3e a7 3d 14 7a ac 3d
       0.047411725 -0.03664012 0.0816631 0.08421722
000310 5a fa 09 3e 04 16 81 bd 30 b8 b5 3b 52 4b 9e 3d
       0.13474408 -0.06303027 0.0055456385 0.0772921
000320 fe c9 c4 bc d8 42 97 bd 7f 7c 78 3e 0a 17 4d 3e
       -0.024022099 -0.07385796 0.24266241 0.2002832
000330 c2 95 02 be 22 6c c0 be 5e c1 83 be 93 54 2e 3e
       -0.1275244 -0.375825 -0.25733465 0.1702445
000340 f4 ed 94 bd 26 b8 df b9 0e 9f 0f bd f5 2b 81 3e
       -0.072719485 -0.00042671076 -0.035063796 0.2522885
000350 cd b5 97 3e 39 29 35 3e 70 71 d0 be 70 8c 37 be
       0.2963089 0.17691506 -0.40711546 -0.17924666
000360 fe 47 f9 be 0a 04 3f 3f 1e 1f 32 bd e8 d5 26 bd
       -0.48687738 0.7461554 -0.043486707 -0.04073134
000370 be db 67 3d 86 22 91 be 1d 52 8a 3d 9a af 8c be
       0.056606047 -0.28346652 0.06753943 -0.27477723
000380 2f 34 97 be 71 8f a3 3e 2b 55 cc bd ba c1 b7 3e
       -0.29532 0.31945375 -0.09977182 0.3588999
000390 ae 65 0c be a2 b1 78 bd 84 a8 b6 3d 0a bf fd bd
       -0.13710663 -0.06071628 0.089188606 -0.123899534
0003a0 23 7b f6 be 80 c7 f7 bd 6d 95 9a bd af ce 01 3f
       -0.4814082 -0.120985985 -0.07548032 0.50706
0003b0 20 96 25 3e 0f 0e 09 3d 30 32 54 bc 12 45 e1 3d
       0.1617055 0.033460673 -0.012951419 0.10999502
0003c0 dc 87 39 be ef 16 56 be 4a cc 2e 3e 8e 75 55 3e
       -0.18118232 -0.20907186 0.17070118 0.20845625
0003d0 6e df d4 3d a4 e6 28 3e 55 c0 54 bd fc 7b 98 3e
       0.10394178 0.16494232 -0.051941235 0.29782093
0003e0 f2 62 f5 bd 25 8b 35 be 72 06 12 be ef 44 3e bb
       -0.11981763 -0.1772886 -0.14260271 -0.0029032787
0003f0 23 b3 20 be fa 98 7a bd c6 16 3c 3e 0d 25 8c 3e
       -0.15693335 -0.061181046 0.18368062 0.27372018

23 f4 [8]
000000 ab 6a 25 be b5 1f de be 77 ae bb 3d a9 0d 8a bc
       -0.16153972 -0.43383566 0.09164136 -0.016852217
000010 95 2c 85 bd 4b e6 06 be b5 42 a7 3c a4 08 f8 bd
       -0.06502644 -0.13173787 0.02041755 -0.12111023

24 f4 [16]
000000 12 72 a8 bd 98 f6 de bd af 6c 10 be 39 c9 51 be
       -0.08224882 -0.10886878 -0.1410396 -0.20486917
000010 56 6f 37 be e1 9b 5c be 32 04 09 be 05 6c 48 be
       -0.17913565 -0.21543838 -0.13380507 -0.19572456
000020 26 58 89 be 64 34 84 be b6 f7 9b bd bf a5 59 3c
       -0.26825064 -0.2582122 -0.076156065 0.013284146
000030 61 a4 91 bb e9 58 d4 be 07 15 37 be a3 55 1e bd
       -0.0044446443 -0.41474083 -0.17879115 -0.03865589
